…
ch.optim as optimer\nmodel.apply(init_weights)\noptim = LBFGS(model.parameters(), line_search_fn='strong_wolfe')\n#optim = optimer.Adam(model.parameters(), lr=1e-4)\n\nprint(model)\nprint(get_n_params(model))","metadata":{"execution":{"iopub.status.busy":"2024-10-05T22:44:03.962597Z","iopub.execute_input":"2024-10-05T22:44:03.963402Z","iopub.status.idle":"2024-10-05T22:44:03.986938Z","shell.execute_reply.started":"2024-10-05T22:44:03.963367Z","shell.execute_reply":"2024-10-05T22:44:03.986005Z"},"trusted":true},"execution_count":48,"outputs":[{"name":"stdout","text":"PINNsformer(\n  (linear_emb): Linear(in_features=2, out_features=32, bias=True)\n  (encoder): Encoder(\n    (layers): ModuleList(\n      (0): EncoderLayer(\n        (attn): MultiheadAttention(\n          (out_proj): NonDynamicallyQuantizableLinear(in_features=32, out_features=32, bias=True)\n        )\n        (ff): FeedForward(\n          (linear): Sequential(\n            (0): Linear(in_features=32, out_features=256, bias=True)\n            (1): WaveAct()\n            (2): Linear(in_features=256, out_features=256, bias=True)\n            (3): WaveAct()\n            (4): Linear(in_features=256, out_features=32, bias=True)\n          )\n        )\n        (act1): WaveAct()\n        (act2): WaveAct()\n      )\n    )\n    (act): WaveAct()\n  )\n  (decoder): Decoder(\n    (layers): ModuleList(\n      (0): DecoderLayer(\n        (attn): MultiheadAttention(\n          (out_proj): NonDynamicallyQuantizableLinear(in_features=32, out_features=32, bias=True)\n        )\n        (ff): FeedForward(\n          (linear): Sequential(\n            (0): Linear(in_features=32, out_features=256, bias=True)\n            (1): WaveAct()\n            (2): Linear(in_features=256, out_features=256, bias=True)\n            (3): WaveAct()\n            (4): Linear(in_features=256, out_features=32, bias=True)\n          )\n        )\n        (act1): WaveAct()\n        (act2): WaveAct()\n      )\n    )\n    (act): WaveAct()\n  )\n  (linear_out): Sequential(\n    (0): Linear(in_features=32, out_features=512, bias=True)\n    (1): WaveAct()\n    (2): Linear(in_features=512, out_features=512, bias=True)\n    (3): WaveAct()\n    (4): Linear(in_features=512, out_features=1, bias=True)\n  )\n)\n453561\n","output_type":"stream"}]},{"cell_type":"code","source":"def get_minibatch(data, batch_index, num_batches=1):\n    \"\"\"\n    Splits the data into `num_batches` parts and returns the part corresponding to `batch_index`.\n    \n    Args:\n    - data: Tensor of shape (N, *, *) where N is the number of data points (could be res, b_left, b
…
